neural_integrators_testing/results/hnn_pipeline/model/best_model.pt (torch, 138596 bytes, 7 tensors)

H_net.net.0.weight f4 [128, 4]
0.35752586 0.555516 -0.27818525 0.41011772 -0.06721841 0.082314454 -0.1832437 0.3122702
0.5778786 -0.35200235 0.38876125 0.10543338 0.47903365 0.06468475 0.3848838 -0.0060060904
0.38998863 0.14101583 -0.41728488 0.0870964 -0.20939323 -0.10213116 -0.16833176 0.35216725
-0.46567342 -0.25740075 -0.14619634 -0.32879078 0.13633436 -0.61485416 0.59780777 -0.38931605
0.3781911 0.109704345 -0.1046574 0.23810737 0.008886583 0.4383068 0.03821499 -0.25252277
0.057889815 -0.297531 0.19736032 0.40047812 0.41116828 -0.31484315 0.39891672 0.097180225
0.24943648 -0.4314966 -0.47468123 -0.17248203 -0.36698154 0.47222257 0.14494836 0.3032054
0.3435873 0.07858622 0.33642998 -0.22817457 0.13275212 -0.35451397 0.11866047 -0.15982643
0.31013831 -0.11416431 0.39063063 -0.2884521 -0.399465 -0.46062416 0.44945985 0.21187672
0.649646 -0.6170008 -0.33836883 -0.29103062 -0.5435419 0.24532497 0.11461581 0.3486458
-0.32138282 -0.4002689 0.1827035 -0.10017981 0.30508 -0.059450764 0.20911138 -0.3493012
-0.31138325 0.21343672 0.059521303 -0.22676182 0.4722779 0.526229 -0.36704886 -0.30856538
0.29857832 -0.34352005 -0.14115216 -0.5827667 -0.34134617 0.19753282 -0.06496107 -0.27247474
-0.077791624 -0.36501738 -0.6018194 -0.27688655 -0.4828196 -0.30215055 0.553837 0.08904381
0.11827839 -0.72112036 -0.24382523 -0.013884307 0.123152785 -0.53544587 -0.16623244 -0.2297377
0.029457597 -0.16527277 -0.036824692 -0.24035224 -0.3980488 -0.3264126 -0.14326696 -0.30586377
0.49642482 -0.14925787 0.6100073 0.16695009 -0.49208155 0.40837723 -0.059698295 -0.19985375
-0.52343 -0.5460681 0.09767119 -0.18365443 0.18756466 -0.35487792 0.2520393 -0.3066193
0.06756167 0.044237167 0.43512326 0.4288965 0.75036967 -0.50008726 0.2244866 -0.09919301
0.023091596 -0.44085023 0.60421354 -0.35968548 0.29444814 0.22577225 0.1394015 -0.29985034
0.8127347 0.18750481 0.1348448 -0.21154597 0.3054025 -0.08004942 -0.40628478 0.42720947
0.10946674 -0.473488 -0.26666647 0.005230782 0.39222178 -0.16143514 -0.39522192 -0.05087932
-0.41031227 0.2918598 0.24452306 -0.36078534 0.08967292 0.33123413 0.039667394 -0.22296438
0.33961123 0.4059523 0.19775459 -0.14937276 -0.19815816 0.033341832 -0.12050225 -0.25524667
0.27312744 0.45649368 -0.06928735 -0.21195532 -0.01693191 0.0023308706 0.13476191 -0.04808515
-0.6923515 -0.17642216 0.3233784 0.15880463 -0.20269789 -0.27649704 -0.5132682 -0.49430537
-0.14497896 0.2524248 0.29600456 0.25170848 -0.492594 -0.36406624 -0.05350664 0.4238768
0.12180386 -0.18766962 0.39908904 -0.119608745 -0.45074764 0.46432176 -0.31576976 -0.07802699
-0.5703455 0.4491352 0.45005703 0.15594213 -0.3412062 -0.6104914 -0.38739184 0.32484183
0.28252813 0.5105988 0.2647342 0.1914881 -0.17835274 -0.41988614 -0.62110674 -0.5008814
0.30874774 -0.3963601 -0.06252948 -0.087851025 -0.17454755 -0.39966676 -0.45877233 0.11531741
-0.20240326 0.29644036 -0.11907395 -0.34730747 -0.1306592 -0.16826344 -0.27688655 -0.5292856
00000000: a10d b73e 4c36 0e3f 4c6e 8ebe f3fa d13e
00000010: cea9 89bd 7b94 a83d 3da4 3bbe e1e1 9f3e
00000020: daef 133f a739 b4be b70b c73e 75ed d73d
00000030: e643 f53e 7079 843d 7d0f c53e bdce c4bb
00000040: 97ac c73e 7466 103e 5da6 d5be 995f b23d
00000050: 2e6b 56be 242a d1bd 295f 2cbe 444f b43e
00000060: bf6c eebe 08ca 83be 7eb4 15be 4457 a8be
00000070: 3c9b 0b3e 1567 1dbf ee09 193f 6f54 c7be
00000080: 44a2 c13e acac e03d 9e56 d6bd 6bd2 733e
00000090: 0899 113c c069 e03e 5287 1c3d aa4a 81be
000000a0: df1d 6d3d fc55 98be d318 4a3e 780b cd3e
000000b0: a684 d23e 1f33 a1be d03e cc3e 6d06 c73d
000000c0: 476c 7f3e 1fed dcbe 6b09 f3be 219f 30be
000000d0: 01e5 bbbe 28c7 f13e 586d 143e bd3d 9b3e
000000e0: adea af3e d0f1 a03d 8d40 ac3e 98a6 69be
000000f0: 2cf0 073e db82 b5be 4304 f33d 8aa9 23be
00000100: 73ca 9e3e face e9bd bd00 c83e feaf 93be
00000110: ad86 ccbe eed6 ebbe 9a1f e63e 36f6 583e
00000120: 334f 263f c4f3 1dbf ae3e adbe f701 95be
00000130: 9025 0bbf 7836 7b3e b2bb ea3d b481 b23e
00000140: 4a8c a4be 0cf0 ccbe a016 3b3e 122b cdbd
00000150: 7233 9c3e a582 73bd 4b21 563e 9bd7 b2be
00000160: a06d 9fbe 288f 5a3e 9ccc 733d 4034 68be
00000170: 69ce f13e f2b6 063f d4ed bbbe 48fc 9dbe
00000180: 42df 983e dce1 afbe 318a 10be 3330 15bf
00000190: edc4 aebe 0b46 4a3e 4f0a 85bd cf81 8bbe
000001a0: 3751 9fbd 8fe3 babe d610 1abf 13c4 8dbe
000001b0: 2134 f7be 7ab3 9abe 43c8 0d3f 9a5c b63d
000001c0: f13b f23d 589b 38bf 52ad 79be 017b 63bc
000001d0: 8737 fc3d fb12 09bf d638 2abe 5c40 6bbe
000001e0: 0f51 f13c 443d 29be 7dd5 16bd e61e 76be
000001f0: 0dcd cbbe 8d1f a7be 93b4 12be 2d9a 9cbe
00000200: 652b fe3e 0ed7 18be 7029 1c3f f7f4 2a3e
00000210: 1df2 fbbe d216 d13e 3386 74bd 76a6 4cbe
00000220: 82ff 05bf 1ecb 0bbf d507 c83d e80f 3cbe
00000230: f310 403e 8fb2 b5be 4c0b 813e 34fd 9cbe
00000240: c65d 8a3d 0832 353d 7ac8 de3e 5298 db3e
00000250: 3a18 403f b805 00bf d1df 653e b425 cbbd
00000260: 962a bd3c 1fb7 e1be bdad 1a3f b228 b8be
00000270: e8c1 963e d730 673e 44bf 0e3e fc85 99be
00000280: 620f 503f 4301 403e c114 0a3e 829f 58be
00000290: b75d 9c3e f3f0 a3bd 8f04 d0be 33bb da3e
000002a0: 1930 e03d 056d f2be 8288 88be fb66 ab3b
000002b0: 4bd1 c83e 414f 25be 875a cabe d566 50bd
000002c0: 7314 d2be a66e 953e 4164 7a3e dbb8 b8be
000002d0: 70a6 b73d 8597 a93e 477a 223d c650 64be
000002e0: 86e1 ad3e fbd8 cf3e 2e80 4a3e 2cf5 18be
000002f0: f9e9 4abe 7291 083d e2c9 f6bd b1af 82be
00000300: 5cd7 8b3e 8ab9 e93e 87e6 8dbd d10a 59be
00000310: cab4 8abc 85c1 183b 07ff 093e eff4 44bd
00000320: f33d 31bf 03a8 34be db91 a53e ae9d 223e
00000330: 0990 4fbe 0591 8dbe 8b65 03bf 9815 fdbe
00000340: 5d75 14be d33d 813e e98d 973e efdf 803e
00000350: 4835 fcbe e466 babe c729 5bbd 6106 d93e
00000360: 4d74 f93d 772c 40be 6655 cc3e 6ef5 f4bd
00000370: 65c8 e6be 95bb ed3e 93ac a1be 9dcc 9fbd
00000380: 2a02 12bf 0df5 e53e e06d e63e 4baf 1f3e
00000390: 94b2 aebe 2a49 1cbf 3958 c6be ab51 a63e
000003a0: 87a7 903e 9ab6 023f 3e8b 873e 7515 443e
000003b0: 1aa2 36be 51fb d6be da00 1fbf c339 00bf
000003c0: 2f14 9e3e b6ef cabe 750f 80bd 3deb b3bd
000003d0: 98bc 32be 1fa1 ccbe 35e4 eabe 892b ec3d
000003e0: cd42 4fbe 08c7 973e 0bdd f3bd 49d2 b1be
000003f0: 86cb 05be 404d 2cbe 13c4 8dbe 437f 07bf

H_net.net.0.bias f4 [128]
0.13197581 -0.54189634 -0.47469 -0.43018967 0.45361087 -0.6198744 0.5179013 -0.0779684
-0.2561652 0.38430375 -0.23040442 0.37674665 0.5563301 -0.49815282 0.28694576 0.21357024
0.072320156 0.18495539 0.34971842 -0.40782776 0.0877793 0.62887335 0.41747877 -0.0752731
-0.5650317 0.221567 -0.32792905 0.51971006 -0.01738091 0.181987 0.117043056 0.2977455
0.5388735 0.19166261 0.39711615 0.5571229 0.3970401 -0.18089736 -0.19685796 0.38284636
0.16417311 0.27472207 -0.05386595 -0.35507804 0.45581424 0.18838675 0.27991727 0.5631137
0.3938461 0.23275454 0.004450291 -0.50295085 -0.51155114 -0.48313645 -0.45639014 -0.30625677
-0.55453384 -0.6388761 -0.3683732 -0.5101686 -0.0345316 0.2563967 0.5737141 -0.27598226
-0.30034932 0.42124024 -0.30752385 -0.26909357 0.43246225 -0.5268105 0.22305827 0.45205534
0.17681931 0.28973413 -0.18813656 0.19017005 0.11330239 0.24034794 0.3339429 0.40974593
-0.5003033 -0.0066997586 -0.3259767 -0.44570318 0.045034587 -0.53726935 0.549214 -0.1061094
-0.41923407 0.3571385 -0.5902148 0.14314167 -0.26189196 -0.46549365 -0.32898566 -0.29420725
0.53042316 0.5577957 0.44556406 -0.27764222 -0.21836002 0.6234611 0.3190173 -0.0562389
0.2903601 -0.5580883 0.1415647 0.5341932 -0.051319815 -0.087984405 -0.5538853 -0.49550337
0.2734235 -0.35726607 0.11744418 0.4107753 -0.5061019 0.024322936 -0.50161 -0.29937387
0.22950892 0.51027066 -0.27663508 -0.24981105 -0.45396632 -0.41490594 -0.5052059 -0.12525314
00000000: ab24 073e b8b9 0abf 910a f3be d241 dcbe
00000010: af3f e83e 17b0 1ebf 2e95 043f e6ad 9fbd
00000020: 1628 83be 76c3 c43e 23ef 6bbe f0e4 c03e
00000030: a66b 0e3f e30d ffbe 8eea 923e 28b2 5a3e
00000040: 971c 943d f264 3d3e 4b0e b33e cdce d0be
00000050: a2c5 b33d d8fd 203f c7bf d53e c828 9abd
00000060: eba5 10bf 76e2 623e 51e6 a7be b80b 053f
00000070: 6962 8ebc cd5a 3a3e 45b4 ef3d 1972 983e
00000080: 9df3 093f 3443 443e cf52 cb3e 9b9f 0e3f
00000090: d748 cb3e 283d 39be 2295 49be 7004 c43e
000000a0: ff1c 283e 5fa8 8c3e 8ba2 5cbd cacc b5be
000000b0: 7c60 e93e 75e8 403e 5151 8f3e 3828 103f
000000c0: 32a6 c93e 3557 6e3e bfd3 913b 63c1 00bf
000000d0: 04f5 02bf a95d f7be f8ab e9be b0cd 9cbe
000000e0: eef5 0dbf 628d 23bf 699b bcbe 699a 02bf
000000f0: 0271 0dbd 6e46 833e edde 123f 8c4d 8dbe
00000100: 63c7 99be cdac d73e c473 9dbe a2c6 89be
00000110: b16b dd3e 0edd 06bf 6369 643e cc73 e73e
00000120: 1f10 353e 0858 943e dfa6 40be f0bb 423e
00000130: 150b e83d c51d 763e 90fa aa3e 38ca d13e
00000140: e113 00bf a689 dbbb 6be6 a6be 3533 e4be
00000150: 3076 383d 7c8a 09bf 4a99 0c3f e34f d9bd
00000160: d9a5 d6be dcda b63e 5118 17bf bb93 123e
00000170: b416 86be 2f55 eebe cf70 a8be 55a2 96be
00000180: d0c9 073f b3cb 0e3f f920 e43e 1f27 8ebe
00000190: c599 5fbe 269b 1f3f 3c56 a33e c35a 66bd
000001a0: 14aa 943e e0de 0ebf 56f6 103e e3c0 083f
000001b0: ba34 52bd 2b31 b4bd 6dcb 0dbf 9eb2 fdbe
000001c0: 2afe 8b3e 94eb b6be 9386 f03d 2451 d23e
000001d0: e58f 01bf e540 c73c 8369 00bf 8847 99be
000001e0: 6304 6b3e 19a1 023f 1da3 8dbe 78ce 7fbe
000001f0: 466e e8be 8d6e d4be 2d55 01bf 5c42 00be

H_net.net.2.weight f4 [128, 128]
-0.026534319 -0.17165743 0.23908773 0.2483667 -0.22334976 -0.07085079 -0.040958837 0.1717481
-0.072266646 -0.20854738 0.07117775 -0.04918217 -0.04407083 -0.013052614 0.15788332 0.23464984
0.15882812 0.004430327 -0.04415058 0.08526208 0.12053437 0.111868195 -0.13600305 -0.0036333527
0.021789301 -0.021377267 0.06045493 0.031730235 0.057173718 -0.036723256 0.01890875 0.048956625
0.027344516 -0.031182382 0.067498975 0.20815684 -0.051317632 0.18849248 0.07149871 -0.01809936
0.035691593 -0.022368219 -0.097632684 -0.031973217 0.016959742 0.0037315493 -0.110769965 -0.16874298
-0.3018799 0.0048842668 0.1259453 0.16336733 0.119577505 0.16495681 0.15756957 0.0312597
0.21986249 0.08032481 -0.01578421 0.16591689 0.062071353 -0.16272977 -0.17022952 -0.013525852
0.12456353 0.055646393 -0.06861401 0.064604945 -0.06665384 0.060923547 0.026997164 -0.053947117
-0.022104928 0.008892556 0.09938345 0.04864214 -0.13886006 -0.056523174 0.039140724 -0.17141953
0.116179936 0.12228752 0.22679506 0.12941754 -0.12284684 0.09910395 0.17268403 -0.02656584
-0.18415345 -0.078328684 0.06054637 -0.10720683 0.021901945 0.10939668 0.10614444 0.14050177
-0.23534268 -0.13507609 -0.01719043 0.13703859 -0.022743696 -0.08624003 -0.060212497 0.2309988
-0.12975352 -0.088186234 0.030528737 0.0051437737 -0.26560453 0.044098172 0.00047408522 0.0011896946
0.049604848 0.09703113 0.017105384 -0.053073924 -0.012757277 -0.013446667 -0.14394784 0.2096985
-0.19945465 0.08392716 -0.029098086 -0.0998243 -0.092388205 0.15935 0.011994859 -0.045408316
-0.04159478 0.21335644 0.123809196 0.0358743 -0.020053584 0.07108646 -0.15716857 -0.050780926
0.036275778 -0.029885035 -0.01268547 -0.030204661 -0.023134049 0.063329406 -0.038133085 -0.06560862
-0.10450863 -0.14886259 0.046142563 0.04369675 -0.15333714 -0.014729687 -0.19803461 0.12855846
0.033938777 -0.12061916 0.07657276 -0.18762615 -0.10100434 -0.08743551 -0.11513343 -0.004824172
-0.0503827 -0.019050295 -0.2936571 -0.065132156 -0.085202895 -0.10128657 -0.0074144234 -0.0066787316
0.09641517 -0.0803716 -0.020136045 0.07254386 -0.0541742 0.018504078 0.14292571 -0.17398584
0.10374947 0.07748583 -0.123719804 0.115689345 0.10516988 0.050497815 -0.07847751 -0.025042241
-0.04574961 0.04443979 0.21825264 0.016591998 0.002685693 -0.001923824 -0.055165716 0.01420482
-0.025091682 -0.12895785 0.1806185 0.046225064 -0.07063076 0.04221494 -0.08292127 -0.057553068
0.09375083 -0.22735365 -0.086101584 -0.14143644 0.0037105395 -0.07766047 -0.06853427 0.044125017
0.05669488 0.075973965 -0.044823334 -0.03015695 -0.05983222 0.09290105 -0.21487752 0.05516274
0.20483541 -0.00512656 0.12509869 0.07906576 -0.043809656 -0.026909169 0.10915036 -0.017667612
-0.110686794 0.011044152 0.04620111 0.0020647084 0.029732447 -0.22727495 -0.08800282 0.055067312
-1.7229248e-05 0.12907347 0.010406605 -0.26555103 0.1161585 -0.05808712 0.18062668 0.103338435
-0.012931577 -0.053119026 0.015939299 -0.027198369 0.1075527 0.13886356 0.22036298 -0.08111266
-0.012480409 -0.20528896 0.1531101 0.1467489 0.07132737 0.037453353 0.17327149 0.033424035
00000000: 805e d9bc f7c6 2fbe 6ad3 743e d753 7e3e
00000010: cdb5 64be 381a 91bd 74c4 27bd bcde 2f3e
00000020: 8900 94bd 728d 55be a4c5 913d 3e73 49bd
00000030: 9d83 34bd a2da 55bc 2aac 213e 0c48 703e
00000040: d7a3 223e 472c 913b 3dd7 34bd e39d ae3d
00000050: b9da f63d 271b e53d 6244 0bbe 8b1d 6ebb
00000060: 7a7f b23c 611f afbc 979f 773d 90f7 013d
00000070: fd2e 6a3d 206b 16bd 86e6 9a3c be86 483d
00000080: 9b01 e03c 3272 ffbc e73c 8a3d 1127 553e
00000090: 7032 52bd 2c04 413e ea6d 923d 1c45 94bc
000000a0: 5931 123d 8e3d b7bc a5f3 c7bd 59f6 02bd
000000b0: 28ef 8a3c 028d 743b 5ddb e2bd f6ca 2cbe
000000c0: 0190 9abe 330c a03b cef7 003e c449 273e
000000d0: 0de5 f43d 70ea 283e eb59 213e 2c0a 003d
000000e0: a223 613e 5681 a43d e34d 81bc 1ee6 293e
000000f0: 883e 7e3d a2a2 26be a650 2ebe 899b 5dbc
00000100: 2a1b ff3d 79ed 633d 8185 8cbd 994f 843d
00000110: cf81 88bd f88a 793d 2829 dd3c a7f7 5cbd
00000120: 6515 b5bc 15b2 113c 8d89 cb3d fb3c 473d
00000130: 5531 0ebe d884 67bd 0652 203d 9a88 2fbe
00000140: bfef ed3d e171 fa3d f73c 683e 0886 043e
00000150: 2097 fbbd 03f7 ca3d 15d4 303e 9ba0 d9bc
00000160: b992 3cbe ca6a a0bd 78ff 773d 418f dbbd
00000170: b56b b33c 5e0b e03d 4262 d93d b2df 0f3e
00000180: acfd 70be 6351 0abe f2d2 8cbc d853 0c3e
00000190: fd50 babc 9d9e b0bd 61a1 76bd f38a 6c3e
000001a0: 1bde 04be fc9a b4bd 6717 fa3c 1a8d a83b
000001b0: 51fd 87be 49a0 343d a48e f839 87ef 9b3a
000001c0: 742e 4b3d 42b8 c63d 9720 8c3c 0b64 59bd
000001d0: e603 51bc 694f 5cbc 1067 13be 34bb 563e
000001e0: d73d 4cbe 01e2 ab3d 1c5f eebc af70 ccbd
000001f0: 0736 bdbd a52c 233e 1686 443c 12fe 39bd
00000200: 4a5f 2abd 1c7a 5a3e ad8f fd3d eef0 123d
00000210: 6a47 a4bc c795 913d ccf0 20be a9ff 4fbd
00000220: e995 143d 76d1 f4bc b8d6 4fbc c46f f7bc
00000230: 9e83 bdbc d9b2 813d 7031 1cbd d05d 86bd
00000240: 9f08 d6bd 6f6f 18be fcff 3c3d 5dfb 323d
00000250: 6904 1dbe c954 71bc 96c9 4abe d4a4 033e
00000260: 6303 0b3d 2e07 f7bd 2ed2 9c3d 1221 40be
00000270: 5ddb cebd 6311 b3bd 13cb ebbd 1614 9ebb
00000280: 175e 4ebd 5d0f 9cbc 395a 96be 0264 85bd
00000290: db7e aebd 556f cfbd b1f4 f2bb 43d9 dabb
000002a0: 5175 c53d de99 a4bd 59f4 a4bc e091 943d
000002b0: c4e5 5dbd dd95 973c 1e5b 123e 5829 32be
000002c0: 9a7a d43d e4b0 9e3d cf60 fdbd 89ee ec3d
000002d0: 4e63 d73d ccd6 4e3d d1b8 a0bd 6325 cdbc
000002e0: f163 3bbd 7f06 363d 9f7d 5f3e f1eb 873c
000002f0: 7402 303b d228 fcba 72f5 61bd 55bb 683c
00000300: 128d cdbc 870d 04be 0ef4 383e 7e56 3d3d
00000310: dca6 90bd 93e9 2c3d a0d2 a9bd c4bc 6bbd
00000320: 6f00 c03d 65cf 68be 0756 b0bd b7d4 10be
00000330: 862c 733b 740c 9fbd b25b 8cbd 6fbc 343d
00000340: e438 683d 3d98 9b3d ac98 37bd b50b f7bc
00000350: a112 75bd e842 be3d da08 5cbe 53f2 613d
00000360: 60c0 513e b4fc a7bb df19 003e 3bed a13d
00000370: c171 33bd 9e70 dcbc 398a df3d abbb 90bc
00000380: c2af e2bd 88f2 343c 603d 3d3d 0f50 073b
00000390: 7691 f33c c4ba 68be d33a b4bd 438e 613d
000003a0: 8787 90b7 d62b 043e 7780 2a3c 4ef6 87be
000003b0: 82e4 ed3d c3ec 6dbd 33f6 383e 1aa3 d33d
000003c0: f7de 53bc 5693 59bd 2293 823c 1dcf debc
000003d0: 9744 dc3d 4032 0e3e d5a6 613e 651e a6bd
000003e0: a17a 4cbc 4537 52be e5c8 1c3e 5845 163e
000003f0: 1614 923d b068 193d 156e 313e a4e7 083d

H_net.net.2.bias f4 [128]
-0.011742018 0.0046649384 -0.055667188 0.01595178 0.008305582 -0.009646817 0.021144696 0.096288964
0.08182117 0.096824974 -0.041161887 0.050912026 -0.15477754 -0.064099185 -0.06810086 -0.008672765
0.09580036 -0.09072747 0.02176787 -0.072156854 -0.07950208 0.0036204942 -0.07043254 -0.019802433
-0.048582178 0.045651402 0.07793567 -0.011607726 0.10576612 -0.023458393 -0.10157314 -0.012637345
-0.091115355 -0.04515186 -0.031301145 0.13797387 0.06330364 0.0030926964 0.027602214 -0.020648336
0.04494839 -0.1458834 0.015184063 0.12531427 0.13284813 -0.1071744 0.020509737 -0.047817845
0.10039018 0.017941216 -0.10887227 0.13167141 0.05395712 -0.0037033104 0.117659 -0.010543965
0.05738321 -0.06080046 0.054303844 0.01148662 0.17341872 0.10249153 0.058014907 -0.016124187
0.10986908 0.09090515 0.04171113 0.101635255 0.030468255 0.06901482 0.042065844 -0.044598397
0.0059119477 0.011541163 -0.021294331 0.058492273 -0.13041705 0.035577904 0.028599124 0.06253975
0.057937697 0.023647519 0.04900854 0.033644244 0.0793449 -0.031126218 -0.036016334 -0.05872139
-0.12575753 0.0059237718 0.12547524 0.04466 0.02399904 0.029559132 0.020782325 -0.043447625
0.036016885 0.0061880723 -0.015032782 -0.0642939 0.0070789848 -0.08207081 0.08647323 0.08303484
-0.114556946 0.057676323 0.07979418 -0.06227435 -0.14499097 0.11209031 -0.010980015 -0.057821315
-0.030153176 -0.005236899 -0.068286374 0.05882555 0.008029804 0.015507398 0.062589906 0.13616255
0.039775092 0.09052784 0.075856335 0.14517833 -0.0026382802 0.09635365 0.10196006 0.025476027
00000000: 9861 40bc 57dc 983b 4703 64bd 4fad 823c
00000010: 2314 083c af0d 1ebc a437 ad3c 2633 c53d
00000020: dc91 a73d 2c4c c63d 5e99 28bd 2189 503d
00000030: 017e 1ebe 6f46 83bd 7778 8bbd 3718 0ebc
00000040: fb32 c43d 53cf b9bd 8852 b23c f9c6 93bd
00000050: fdd1 a2bd d045 6d3b ef3e 90bd b638 a2bc
00000060: 1bfe 46bd f7fc 3a3d bd9c 9f3d 552e 3ebc
00000070: e89b d83d d12b c0bc 9405 d0bd de0c 4fbc
00000080: b09a babd 28f1 38bd a135 00bd 0649 0d3e
00000090: 57a5 813d d6ae 4a3b 0a1e e23c b326 a9bc
000000a0: ce1b 383d 7562 15be 94c6 783c 6252 003e
000000b0: 5709 083e 407e dbbd 0904 a83c a5dc 43bd
000000c0: 5e99 cd3d 75f9 923c 6df8 debd dfd4 063e
000000d0: 2402 5d3d 3db3 72bb 34f7 f03d 98c0 2cbc
000000e0: a80a 6b3d e709 79bd b56d 5e3d 6032 3c3c
000000f0: ad94 313e 14e7 d13d 0aa1 6d3d df16 84bc
00000100: 0a03 e13d 7b2c ba3d 4ad9 2a3d 2526 d03d
00000110: 9098 f93c a457 8d3d 3c4d 2c3d cfac 36bd
00000120: 03b9 c13b 2517 3d3c 7371 aebc 9895 6f3d
00000130: 0c8c 05be 23ba 113d b648 ea3c d714 803d
00000140: 1450 6d3d 71b8 c13c 2ebd 483d 8cce 093d
00000150: 947f a23d 69fc febc dd85 13bd d785 70bd
00000160: 95c6 00be 331c c23b 957c 003e 67ed 363d
00000170: a299 c43c fe25 f23c b23f aa3c 23f6 31bd
00000180: 7186 133d 50c5 ca3b 0f4c 76bc 85ac 83bd
00000190: d4f6 e73b be14 a8bd e018 b13d 2c0e aa3d
000001a0: d59c eabd 023e 6c3d 226b a33d 6413 7fbd
000001b0: 8378 14be 9b8f e53d 85e5 33bc 0bd6 6cbd
000001c0: cb03 f7bc 4b9a abbb bad9 8bbd 0ff3 703d
000001d0: 708f 033c be12 7e3c 232f 803d 326e 0b3e
000001e0: 35eb 223d a966 b93d 915a 9b3d a1a9 143e
000001f0: ffe6 2cbb 1055 c53d 70d0 d03d 1ab3 d03c

H_net.net.4.weight f4 [128, 128]
0.2791525 -0.016333418 0.095819734 0.1501352 -0.10058755 -0.018524949 -0.10418272 -0.31372777
-0.1518181 0.37568074 0.2167339 0.13898537 0.043217402 -0.13121533 -0.1292898 -0.1055207
0.31751105 0.14801575 -0.072536275 0.17902474 -0.10726878 -0.11218586 -0.27523887 -0.123491116
-0.35381126 0.5075111 -0.08207754 -0.06895801 0.30831397 -0.3481712 -0.0537814 -0.18423171
-0.073693044 0.114396036 -0.08234385 0.4254649 -0.003875812 0.14287055 -0.038667887 0.2180005
-0.22159173 0.10098724 0.17699872 0.19676961 0.108712055 -0.17850442 -0.20786986 -0.16335405
0.19731006 0.14340073 -0.020239707 0.2673493 0.29448703 0.18232347 0.034675162 -0.08184083
-0.23389584 0.08899665 -0.22834697 0.08081132 0.34079343 0.01681653 0.12911047 0.14915723
0.16183102 0.3222654 0.02033052 -0.11754915 -0.2699161 0.055335194 0.20345107 -0.15492278
0.13076445 0.18762653 -0.2375234 0.22135384 -0.012220349 0.32744583 -0.40856254 -0.31424493
-0.029092113 0.041545697 -0.07357441 -0.007095989 -0.012546356 0.1236656 0.013015148 -0.2920683
0.28129977 -0.18211669 0.041225724 -0.23249911 -0.12540956 0.029169971 -0.26971075 0.09264872
-0.19375855 0.35046867 -0.07141585 0.22301091 -0.09380451 -0.27790353 0.27362794 -0.26385638
0.011837855 0.13267899 0.33447015 0.13914424 -0.36539024 -0.17423671 0.30428386 -0.009088547
0.06303431 -0.0021749723 0.21684408 0.03398658 0.0075942725 0.0531012 -0.20288546 -0.0060804994
-0.01795107 0.13051122 0.16626967 -0.61235803 0.08116401 -0.013763355 0.051387224 -0.14935744
0.025080742 0.11898976 -0.014053487 -0.11617054 0.036736883 0.036911104 0.086737804 0.08774288
-0.045141138 -0.1555988 0.09222881 -0.08035541 0.05972663 -0.04807027 -0.011825843 0.071848415
0.0046074763 -0.019466864 0.075103916 0.10452449 -0.014492789 0.018228333 0.022189181 0.10754062
0.002720277 0.12123946 0.037210114 0.10821143 -0.105748616 0.116007015 0.11915871 0.017505065
0.031017864 0.03035647 -0.06999797 -0.09402667 0.05664804 -0.11546986 -0.03990299 -0.05465767
-0.060551442 -0.07772448 -0.07282244 -0.1265454 -0.09444838 -0.0432544 0.068106286 0.0124063855
0.011384941 -0.079868756 -0.09808051 -0.06306101 0.03870607 0.05493714 -0.020850355 -0.041102126
0.052351035 0.008235639 0.02464274 -0.057626907 -0.051859334 0.099003784 0.08311823 -0.13394858
-0.028213134 -0.029988557 0.05286518 0.042714614 0.032271206 0.0055297012 -0.08270429 0.09482085
-0.0048021115 -0.172424 0.070463456 0.09066556 0.002411726 -0.122070655 0.1092347 0.013243096
0.044835344 -0.008735273 0.089987606 -0.02960758 -0.12742817 0.005634708 -0.08618745 -0.08013651
0.10447123 0.04720628 0.06972026 0.09097023 0.10459083 -0.14471056 0.039011862 0.0068077752
-0.03234405 -0.10285893 0.0014869604 -0.11454004 -0.03155923 0.049507886 -0.04903536 0.014768256
0.06708346 -0.13413998 -0.15518086 -0.12896197 -0.09226865 0.0433388 -0.14458567 -0.05101827
-0.0014232934 -0.040063508 0.085097335 0.030561471 -0.03949924 0.03817276 0.07712454 0.017307986
-0.01889001 -0.04946839 -0.03667413 0.018297685 -0.02729793 0.019146003 0.06458499 0.07145565
00000000: 14ed 8e3e a9cd 85bc 233d c43d 0bbd 193e
00000010: d800 cebd a2c1 97bc c05d d5bd eda0 a0be
00000020: 3476 1bbe 3a59 c03e 7eef 5d3e 2e52 0e3e
00000030: bb04 313d 505d 06be 8c64 04be 3d1b d8bd
00000040: cf90 a23e 7191 173e e68d 94bd 4352 373e
00000050: bcaf dbbd b3c1 e5bd 1cec 8cbe e9e8 fcbd
00000060: c026 b5be 3fec 013f 4518 a8bd db39 8dbd
00000070: 54db 9d3e 7f43 b2be e349 5cbd 3da7 3cbe
00000080: 61ec 96bd 7848 ea3d e4a3 a8bd 89d6 d93e
00000090: 5601 7ebb a84c 123e 3862 1ebd 863b 5f3e
000000a0: f1e8 62be 66d2 ce3d 273f 353e f97d 493e
000000b0: 6da4 de3d ddc9 36be d6db 54be 4946 27be
000000c0: a60b 4a3e a4d7 123e becd a5bc 02e2 883e
000000d0: 01c7 963e 01b3 3a3e 8b07 0e3d 2a9c a7bd
000000e0: 6482 6fbe e043 b63d cad3 69be 6880 a53d
000000f0: 7a7c ae3e d2c2 893c 8935 043e acbc 183e
00000100: 08b7 253e f8ff a43e 318c a63c 9cbd f0bd
00000110: 7132 8abe 28a7 623d 7a55 503e 14a4 1ebe
00000120: 1ee7 053e 2b21 403e 5639 73be 95aa 623e
00000130: dc37 48bc fba6 a73e 1c2f d1be b6e4 a0be
00000140: 9552 eebc d22b 2a3d 2eae 96bd 7885 e8bb
00000150: 3b8f 4dbc 6444 fd3d 7d3d 553c fa89 95be
00000160: 8606 903e cc7c 3abe 4edc 283d 3f14 6ebe
00000170: 5d6b 00be ddf5 ee3c 8717 8abe 9dbe bd3d
00000180: a468 46be a170 b33e 7942 92bd f95c 643e
00000190: 941c c0bd 5f49 8ebe f618 8c3e 2f18 87be
000001a0: 90f3 413c 00dd 073e ac3f ab3e d47b 0e3e
000001b0: 6e14 bbbe 1c6b 32be 18cb 9b3e 21e8 14bc
000001c0: 2218 813d fb89 0ebb 600c 5e3e 8335 0b3d
000001d0: 60d9 f83b a580 593d 35c1 4fbe ed3e c7bb
000001e0: 1f0e 93bc bca4 053e 9942 2a3e 7fc3 1cbf
000001f0: 5139 a63d b27f 61bc 697b 523d 28f1 18be
00000200: 2176 cd3c e7b0 f33d 9940 66bc d2ea edbd
00000210: 6a79 163d 1930 173d 97a3 b13d 8ab2 b33d
00000220: eae5 38bd 4b55 1fbe 75e2 bc3d 6191 a4bd
00000230: e9a3 743d 55e5 44bd 2ec1 41bc 4325 933d
00000240: 50fa 963b f978 9fbc 15d0 993d f010 d63d
00000250: 2a73 6dbc 9653 953c 16c6 b53c 423e dc3d
00000260: ad46 323b 654c f83d a269 183d f49d dd3d
00000270: bb92 d8bd 1695 ed3d 7b09 f43d c866 8f3c
00000280: 2d19 fe3c 22ae f83c 185b 8fbd 0e91 c0bd
00000290: c607 683d 767b ecbd 5171 23bd b9e0 5fbd
000002a0: ca04 78bd 032e 9fbd ee23 95bd 1e95 01be
000002b0: 276e c1bd 872b 31bd 4f7b 8b3d 2744 4b3c
000002c0: e787 3a3c 3b92 a3bd 6fde c8bd 2126 81bd
000002d0: 428a 1e3d c405 613d 5dce aabc b45a 28bd
000002e0: 0a6e 563d c6ee 063c 92df c93c 310a 6cbd
000002f0: 746a 54bd 7fc2 ca3d e439 aa3d d129 09be
00000300: 3b1f e7bc 90aa f5bc 2989 583d 85f5 2e3d
00000310: d02e 043d 7f32 b53b de60 a9bd 6f31 c23d
00000320: 085b 9dbb eb8f 30be 254f 903d ddae b93d
00000330: 0c0e 1e3b 2e00 fabd 71b6 df3d 92f9 583c
00000340: 44a5 373d 641e 0fbc 6c4b b83d 988b f2bc
00000350: 887c 02be 5ba3 b83b 0c83 b0bd 9c1e a4bd
00000360: 03f5 d53d 5f5b 413d 7fc9 8e3d 9a4e ba3d
00000370: b833 d63d 012f 14be e7ca 1f3d c213 df3b
00000380: 327b 04bd b4a7 d2bd 1de6 c23a f893 eabd
00000390: 4044 01bd c8c8 4a3d 4dd9 48bd 8ef6 713c
000003a0: 0e63 893d fe5b 09be bbe7 1ebe 9b0e 04be
000003b0: 59f7 bcbd 0784 313d 440e 14be 89f8 50bd
000003c0: cd8d baba a219 24bd 8347 ae3d 0d5c fa3c
000003d0: f5c9 21bd 0a5b 1c3d 79f3 9d3d 7ac9 8d3c
000003e0: 39bf 9abc 5e9f 4abd 9d37 16bd 07e5 953c
000003f0: e99f dfbc 14d8 9c3c 2345 843d 5757 923d

H_net.net.4.bias f4 [128]
-0.027159108 0.10420713 -0.034979433 0.017497934 -0.052186016 0.031449392 -0.10870905 0.17702171
-0.04115537 -0.03785504 0.07255021 -0.027630365 0.08632554 0.0306423 0.011082686 -0.042928386
0.23120178 -0.013797791 0.043017726 0.041052856 0.12958907 0.08021663 -0.036219396 -0.03360269
0.040961906 -0.15109207 -0.09056575 -0.06988071 0.14370278 0.24976411 -0.0878057 -0.18294501
-0.036968485 0.02881048 0.0820847 0.09157343 0.0842573 -0.002691704 0.02981747 -0.023680806
0.015598619 0.06451349 0.15694065 -0.091680236 -0.037160654 0.09470746 0.17303522 0.039827984
-0.073832676 0.054960407 0.04469695 0.047679204 -0.1594438 0.041852932 0.011966641 0.06373873
0.0794289 -0.02465956 0.04208892 0.0811192 0.012868384 -0.043729432 0.062414862 0.10870095
-0.06431778 -0.012248802 -0.048425492 0.05806952 0.335286 0.08086022 0.10082239 -0.1207167
0.046777338 0.0034684704 -0.06829988 -0.15392336 -0.039253477 -0.020122489 -0.06707024 -0.0021927434
0.0026389468 -0.174164 0.035175055 0.07557875 -0.017968262 0.039457656 0.11942612 0.07331836
0.21789913 -0.0015729397 -0.048859663 0.009310671 0.027362945 0.16833772 -0.05329211 -0.049362544
-0.095851436 -0.06915185 0.015217451 0.1246049 0.05577806 -0.010729868 -0.009935656 0.059365056
0.09157543 0.018045606 -0.08021367 0.15536162 -0.018585043 -0.023225443 0.060023613 -0.01996608
0.10390096 0.071576335 -0.086695924 -0.0910596 -0.063975774 -0.099687345 -0.120528474 0.059884638
-0.08797636 -0.11186219 0.058538347 -0.0035133779 -0.0029694468 -0.117677964 0.016748954 -0.049511272
00000000: c77c debc 8c6a d53d 9846 0fbd d457 8f3c
00000010: 01c1 55bd 14d1 003d daa2 debd 2e45 353e
00000020: 8992 28bd e30d 1bbd 3495 943d 1359 e2bc
00000030: 72cb b03d 9005 fb3c 2794 353c add5 2fbd
00000040: 29c0 6c3e 2110 62bc 5b33 303d 0a27 283d
00000050: ffb2 043e 9e48 a43d ca5a 14bd f9a2 09bd
00000060: acc7 273d e1b7 1abe 897a b9bd 9e1d 8fbd
00000070: d226 133e 2ac2 7f3e 7ad3 b3bd f055 3bbe
00000080: 446c 17bd f503 ec3c 061c a83d da8a bb3d
00000090: 178f ac3d 4d67 30bb c443 f43c 40fe c1bc
000000a0: 5a91 7f3c a61f 843d 0db5 203e d9c2 bbbd
000000b0: c535 18bd fcf5 c13d 2530 313e ab22 233d
000000c0: 9635 97bd 2a1e 613d 2614 373d 454b 433d
000000d0: 3c45 23be fb6d 2b3d bb0f 443c 7489 823d
000000e0: 9eab a23d d802 cabc 6e65 2c3d d321 a63d
000000f0: ead5 523c a21d 33bd baa6 7f3d 9b9e de3d
00000100: 0ab9 83bd 33af 48bc cf59 46bd 4eda 6d3d
00000110: 9baa ab3e 0b9a a53d f87b ce3d 513a f7bd
00000120: 9899 3f3d 474f 633b cfe0 8bbd 169e 1dbe
00000130: 41c8 20bd ebd7 a4bc 1f5c 89bd 21b4 0fbb
00000140: 2ef2 2c3b 0c58 32be b813 103d 08c9 9a3d
00000150: 2d32 93bc 5a9e 213d ae95 f43d f027 963d
00000160: f320 5f3e 192b ceba 1221 48bd c98b 183c
00000170: 4128 e03c b960 2c3e d448 5abd 6130 4abd
00000180: c24d c4bd 7c9f 8dbd 9e52 793c db30 ff3d
00000190: 8977 643d 54cc 2fbc 29c9 22bc c628 733d
000001a0: e68b bb3d 61d4 933c 1147 a4bd 1e17 1f3e
000001b0: a93f 98bc 4943 bebc 52db 753d e88f a3bc
000001c0: 07ca d43d 9d96 923d a28d b1bd 757d babd
000001d0: bb05 83bd e128 ccbd a2d7 f6bd 9849 753d
000001e0: f32c b4bd 0118 e5bd e8c5 6f3d b340 66bb
000001f0: 0d9b 42bb 2501 f1bd 1a35 893c 55cc 4abd

H_net.net.6.weight f4 [1, 128]
0.37236717 -0.12765141 0.31930113 -0.08418436 0.12670614 0.11311241 0.21962284 -0.06915792
0.07461039 0.11893171 -0.14089863 0.093623765 -0.045218367 -0.09617079 0.117277265 0.06279517
-0.26562947 -0.08416702 0.086476706 -0.14084834 -0.096311584 -0.10520825 0.15315539 -0.07673366
-0.1175765 0.100869656 0.11822722 0.09672539 -0.23696858 -0.09676458 0.07480861 0.07855519
0.11364607 0.1283683 -0.08739142 0.10278097 0.075261965 -0.10348011 -0.30685157 -0.07506703
0.12240172 0.0933326 -0.11948223 0.1657697 0.11204133 0.108627394 -0.0932317 -0.022361806
-0.13309346 -0.13532335 0.16484846 -0.052428048 0.10212613 -0.13163783 0.118829645 0.24768996
-0.11054974 0.13894431 0.11822582 -0.08742844 0.37795684 -0.13978343 -0.20607974 0.05910995
0.1392287 0.14757124 -0.12246447 -0.18909475 -0.18731709 0.055602755 -0.15765163 0.32448244
0.08259251 0.10766878 0.53522754 0.19218464 0.08277556 0.09537105 0.09219486 -0.11115041
-0.11850576 0.07607447 -0.029041996 0.06255501 -0.08336991 0.40946162 -0.16249499 -0.06203234
-0.105042525 0.20976168 0.10182385 0.06609837 -0.103021786 -0.47018945 -0.11915169 -0.1117679
-0.13874803 0.124347664 0.12077652 -0.3730194 -0.07938948 0.117115 -0.09358567 0.082152985
-0.12966411 0.10983042 -0.10671866 0.06405778 -0.15579924 0.06582615 -0.06855746 -0.11087083
-0.16328594 -0.15203735 0.11675274 -0.074852645 0.06532735 0.26244056 0.09281412 0.18294188
0.15051764 0.4882826 0.062296875 0.13308178 -0.08930583 -0.066667125 -0.09850825 0.063850574
00000000: e9a6 be3e 0db7 02be 707b a33e da68 acbd
00000010: 41bf 013e 7ba7 e73d cfe4 603e aba2 8dbd
00000020: 55cd 983d 7892 f33d bb47 10be d1bd bf3d
00000030: e536 39bd 31f5 c4bd 102f f03d c19a 803d
00000040: 9600 88be c25f acbd b31a b13d 8c3a 10be
00000050: 023f c5bd 6c77 d7bd c4d4 1c3e 8a26 9dbd
00000060: f3cb f0bd c094 ce3d 1d21 f23d f617 c63d
00000070: e4a7 72be 822c c6bd 4235 993d 8be1 a03d
00000080: 45bf e83d fb72 033e 46fa b2bd d47e d23d
00000090: f222 9a3d 61ed d3bd a61b 9dbe bebc 99bd
000000a0: c1ad fa3d 2a25 bf3d 19b3 f4bd 88bf 293e
000000b0: ed75 e53d 0a78 de3d 43f0 bebd 1b30 b7bc
000000c0: a749 08be 3492 0abe 09ce 283e cbbe 56bd
000000d0: 8127 d13d 11cc 06be f55c f33d 70a2 7d3e
000000e0: e767 e2bd 6b47 0e3e 6120 f23d af0d b3bd
000000f0: 8f83 c13e 6323 0fbe 9106 53be 461d 723d
00000100: f891 0e3e ea1c 173e a7ce fabd 0ea2 41be
00000110: 0dd0 3fbe b7bf 633d 6e6f 21be 9022 a63e
00000120: 4326 a93d 7381 dc3d ac04 093f 0dcc 443e
00000130: 3c86 a93d e651 c33d a9d0 bc3d d3a2 e3bd
00000140: 26b3 f2bd efcc 9b3d 7be9 edbc d71c 803d
00000150: d8bd aabd f4a4 d13e 1665 26be 9f15 7ebd
00000160: 8920 d7bd c4cb 563e 0689 d03d 955e 873d
00000170: 16fd d2bd acbc f0be cd05 f4bd 92e6 e4bd
00000180: f713 0ebe fda9 fe3d ae59 f73d 66fc bebe
00000190: f496 a2bd fdd9 ef3d d8a9 bfbd d33f a83d
000001a0: abc6 04be c5ee e03d 508f dabd ba30 833d
000001b0: d689 1fbe dccf 863d db67 8cbd 3f10 e3bd
000001c0: 6e34 27be aeaf 1bbe 101c ef3d 584c 99bd
000001d0: 58ca 853d 9c5e 863e 5415 be3d 1e55 3b3e
000001e0: 4c21 1a3e 2d00 fa3e 022b 7f3d 9746 083e
000001f0: fae5 b6bd c688 88bd b2be c9bd 17c4 823d
