models/hnn_model.pt (torch, 274076 bytes, 5 tensors)

net.0.weight f4 [256, 6]
0.34055236 0.34286365 -0.2259842 0.37642282 -0.19528016 0.100362696 -0.043416344 0.21100529
0.6233882 -0.22128652 0.21743077 0.028026707 0.48583522 0.009611114 0.39040348 -0.054196015
0.12397491 0.060231708 -0.3216001 0.14796445 -0.33400965 -0.02705467 -0.14122579 0.23936819
-0.38881552 -0.14723876 -0.14320697 -0.20824449 0.06489837 -0.32550803 0.5098969 -0.4159847
0.43245193 0.04128561 -0.1525105 0.12716898 0.13104689 0.35409346 0.2466399 -0.2102615
0.06107475 -0.016638666 0.2810159 0.47797382 0.36588603 -0.2982297 0.22191833 0.1020453
0.07674753 -0.22556075 -0.6706247 -0.22112544 -0.22343975 0.1964044 0.22846758 0.12710737
0.19730498 -0.052176163 0.2540825 -0.267343 0.048622403 -0.40436834 0.21716039 -0.13051257
0.1268968 -0.067718 0.23342992 -0.28596896 -0.35060796 -0.2547248 0.20910646 0.24058583
0.36701563 -0.35222626 -0.5788393 -0.30569822 -0.200448 0.19435583 0.23573989 0.46152303
-0.36793607 -0.23863521 0.15258189 -0.1700159 0.31130552 -0.14890206 0.36452052 -0.23265606
-0.229847 0.08477684 0.19788305 -0.12574023 0.419554 0.27033308 -0.25239548 -0.1447773
0.4015624 -0.21404673 0.038526844 -0.383013 -0.23409346 0.00782653 0.01998189 -0.43394023
0.0713904 -0.16658282 -0.2617132 -0.12861727 -0.40227297 -0.32531708 0.6033876 0.040918134
0.10945881 -0.38633862 -0.30667916 -0.10165108 0.10709842 -0.29767036 -0.11185029 -0.26665002
-0.14067344 -0.17041886 -0.17792954 -0.083246306 -0.12778309 -0.15563007 -0.26025453 -0.49899688
0.49178508 -0.04215672 0.26420328 0.052098185 -0.44750133 0.35792372 -0.24519303 -0.14311212
-0.27043286 -0.26738375 0.20060931 -0.18169117 0.28552285 -0.25160787 0.2706978 -0.19299869
-0.018739432 0.15684377 0.38398662 0.25649062 0.36160478 -0.29562467 0.16807592 -0.29406354
0.056615107 -0.22926107 0.27416432 -0.19072667 0.3795776 0.109239854 0.22168362 -0.23695247
0.31383476 0.009055594 0.09120503 -0.47889075 0.2562908 -0.07166304 -0.10203731 0.22980596
-0.010028981 -0.16767241 -0.46813458 -0.061579373 0.22746755 -0.106167786 -0.2723022 -0.059744705
-0.45706695 0.15267843 0.34378976 -0.29635158 0.090085775 0.25143132 0.15028755 -0.15732823
0.12796146 0.24463275 0.14002195 -0.20844302 -0.20593493 0.09417105 -0.14813079 -0.023494463
0.29830253 0.30333623 -0.0313331 -0.036437932 -0.057465 -0.028872479 0.04500685 0.22656538
-0.6695092 -0.064922065 0.2567789 0.13239372 -0.024500264 -0.19741695 -0.44646376 -0.3536003
-0.108177714 0.09365664 0.28585455 0.24488786 -0.6255742 -0.1471641 -0.1252417 0.18477687
0.13959032 -0.19489694 0.19646475 -0.05051708 -0.2577505 0.25737372 -0.23556411 -0.069094636
-0.5673076 0.2316315 0.30176955 0.17336671 -0.31432003 -0.46660608 -0.4048647 0.24378756
0.22675529 0.26553196 0.2513184 0.04027433 -0.02207134 -0.25916335 -0.31868702 -0.32758018
0.10791374 -0.29798698 -0.23416655 -0.1075565 -0.04948717 -0.28508127 -0.3515776 0.21680047
-0.21555181 0.22257368 -0.124520466 -0.19692393 -0.071279325 -0.24594243 -0.27141842 -0.31235856
00000000: e15c ae3e d38b af3e 6768 67be 7eba c03e
00000010: 86f7 47be f58a cd3d 56d5 31bd c511 583e
00000020: 5e96 1f3f ef98 62be 2ca6 5e3e 4498 e53c
00000030: 65bf f83e ef77 1d3c f7e2 c73e a4fc 5dbd
00000040: 8fe6 fd3d 86b5 763d c5a8 a4be fe83 173e
00000050: 5003 abbe c1a1 ddbc 7e9d 10be ef1c 753e
00000060: d412 c7be c2c5 16be d9a4 12be 0b3e 55be
00000070: 70e9 843d fda8 a6be 9a88 023f f2fb d4be
00000080: 576a dd3e 1a1b 293d b62b 1cbe 9638 023e
00000090: 2831 063e bd4b b53e 2c8f 7c3e ca4e 57be
000000a0: 8429 7a3d d04d 88bc 51e1 8f3e fcb8 f43e
000000b0: 6a55 bb3e 90b1 98be 8f3e 633e 20fd d03d
000000c0: cf2d 9d3d 66f9 66be 0fae 2bbf b56e 62be
000000d0: 64cd 64be 3c1e 493e 68f3 693e 6f28 023e
000000e0: 510a 4a3e acb6 55bd 1a17 823e 2fe1 88be
000000f0: 4928 473d 5e09 cfbe 4b5f 5e3e 16a5 05be
00000100: 3cf1 013e bcaf 8abd 4108 6f3e 866a 92be
00000110: e382 b3be 4a6b 82be 0120 563e 225c 763e
00000120: 79e9 bb3e 0057 b4be d02e 14bf 7a84 9cbe
00000130: 3e42 4dbe 3705 473e cc65 713e bf4c ec3e
00000140: 1e62 bcbe ca5c 74be 6d3e 1c3e a618 2ebe
00000150: 7063 9f3e c879 18be 6fa2 ba3e 643d 6ebe
00000160: 035d 6bbe 7b9f ad3d dba1 4a3e 0cc2 00be
00000170: c8cf d63e 1969 8a3e fb39 81be 8040 14be
00000180: 9699 cd3e 112f 5bbe 53ce 1d3d 481a c4be
00000190: 32b6 6fbe d93a 003c 10b1 a33c 6a2d debe
000001a0: 2135 923d b094 2abe 46ff 85be 3fb4 03be
000001b0: b9f6 cdbe f68f a6be 9c77 1a3f c699 273d
000001c0: f12b e03d 2dce c5be 0d05 9dbe 712e d0bd
000001d0: 6b56 db3d 4068 98be c411 e5bd 5a86 88be
000001e0: b30c 10be 4882 2ebe 2933 36be 0a7d aabd
000001f0: 92d9 02be 7d5d 1fbe 1540 85be 857c ffbe
00000200: 41cb fb3e 86ac 2cbd a745 873e e864 553d
00000210: e51e e5be c741 b73e e213 7bbe fc8b 12be
00000220: 2d76 8abe 86e6 88be 876c 4d3e 400d 3abe
00000230: 0d30 923e bfd2 80be e798 8a3e 73a1 45be
00000240: 7083 99bc a79b 203e e599 c43e bd52 833e
00000250: 4324 b93e 1e5c 97be 181c 2c3e 7f8f 96be
00000260: 3ee5 673d 6ac3 6abe 445f 8c3e da4d 43be
00000270: ff57 c23e 25b9 df3d 0801 633e aba3 72be
00000280: f3ae a03e ea5d 143c b4c9 ba3d 2b31 f5be
00000290: 8c38 833e 12c4 92bd f0f8 d0bd 4152 6b3e
000002a0: 9850 24bc 51b2 2bbe 56af efbe a73a 7cbd
000002b0: 41ed 683e 7f6e d9bd 326b 8bbe ddb6 74bd
000002c0: ae04 eabe bc57 1c3e 3605 b03e 65bb 97be
000002d0: e47e b83d 9bbb 803e fbe4 193e a71a 21be
000002e0: 5408 033e 0281 7a3e ea61 0f3e 1672 55be
000002f0: 9be0 52be c0dc c03d 99af 17be 7677 c0bc
00000300: 1cbb 983e e34e 9b3e 2357 00bd f13f 15bd
00000310: 6b60 6bbd fa85 ecbc 1a59 383d c100 683e
00000320: f464 2bbf dcf5 84bd 8678 833e 3892 073e
00000330: c7b4 c8bc ab27 4abe e696 e4be 190b b5be
00000340: 478c ddbd 0dcf bf3d 875b 923e e2c3 7a3e
00000350: a125 20bf 30b2 16be 5c3f 00be 2636 3d3e
00000360: c4f0 0e3e 1093 47be 0e2e 493e ffea 4ebd
00000370: e0f7 83be 7dc6 833e b837 71be 7d81 8dbd
00000380: 123b 11bf cf30 6d3e 8a81 9a3e 0b87 313e
00000390: 8eee a0be fee6 eebe 6d4a cfbe 72a3 793e
000003a0: 8a32 683e cef3 873e ceac 803e b2f6 243d
000003b0: f4ce b4bc 0fb1 84be f22a a3be 97b8 a7be
000003c0: e101 dd3d c091 98be 5bc9 6fbe 9546 dcbd
000003d0: 0fb3 4abd 2cf6 91be fb01 b4be f100 5e3e
000003e0: 9db9 5cbe 5bea 633e 9604 ffbd 6da6 49be
000003f0: e5fa 91bd 55d8 7bbe 5bf7 8abe 76ed 9fbe

net.0.bias f4 [256]
0.06950885 -0.14284906 -0.2952595 -0.2258336 -0.18207973 0.48051247 0.28907898 0.54514384
0.24364337 0.1475212 0.2738134 0.23177634 -0.4763601 -0.35659382 -0.057527795 0.0660579
0.24823664 0.24458776 0.49752393 0.048417144 -0.1632508 -0.34876403 -0.3960554 -0.16091983
0.13196167 0.2889612 0.4331988 -0.13063015 -0.007468595 -0.22578757 0.008331962 0.1428435
-0.025147244 -0.086634174 0.07684648 0.16524218 0.0006748652 -0.30439186 0.19157317 -0.07133838
-0.24864464 0.118293636 0.027462587 0.0012962639 -0.37495753 0.0058948128 -0.5490429 0.13362713
0.017096702 0.3555126 -0.0176494 -0.008297586 0.19164412 0.293442 -0.29157633 0.36295038
-0.04293144 -0.38091052 0.13155948 -0.4011763 -0.17577699 -0.30270144 -0.35933092 0.4244332
-0.5029824 0.27529445 -0.4919537 -0.13553178 -0.05313172 0.38530877 -0.20950593 0.20203133
-0.05977299 0.13880302 0.11549449 0.2930917 -0.29846692 -0.32432193 0.46002084 -0.37325504
-0.1445723 0.017529704 0.46391243 -0.11157523 -0.45049918 -0.060896754 0.32793212 0.22638527
0.4158686 -0.13525407 0.26645714 -0.5718928 0.016425144 0.30790552 0.3005543 -0.42521867
-0.24682868 0.18400437 -0.2550442 -0.49235043 -0.45720556 0.17802772 0.3122965 0.04444973
0.04949853 0.2573964 -0.41006637 -0.030064981 0.06438083 -0.29585797 0.3685129 -0.25597268
0.06883566 -0.5014375 -0.014995529 -0.26538625 0.2533484 -0.3043633 0.30382422 -0.45831165
0.31142992 -0.35207328 0.32024792 -0.2778744 0.05699152 -0.18575361 0.26171234 0.07242694
-0.47551224 -0.02406861 -0.25240868 0.44647804 0.19190018 -0.15115005 -0.2408249 0.115946196
-0.36326173 0.27420318 0.31330022 0.31108147 0.117677696 -0.25384095 0.39565405 -0.30267856
-0.2369755 0.006337359 0.3877753 0.3660256 0.051756196 0.27278107 -0.42787817 -0.02372203
-0.41617632 0.096902035 -0.42502868 -0.21216801 0.32087064 0.4596592 -0.3279538 -0.358549
0.023663906 0.21556655 0.04910621 -0.28730655 -0.29085594 0.11964572 0.47715542 -0.28211486
0.22232847 0.15003552 0.486076 0.019029336 0.07377987 0.21591638 0.38445327 0.6161816
-0.15669784 0.41272852 0.41889513 -0.34057364 0.039959453 -0.17940222 0.3313941 -0.349391
-0.0409247 0.38562036 -0.5640846 -0.30919385 -0.35275722 0.40373573 0.33533046 -0.32141337
0.037381656 -0.3203599 -0.23742504 0.34271696 0.24380401 -0.2923595 -0.0007393733 0.19576217
0.08242915 -0.05348812 -0.31969315 0.30857337 0.18751758 0.20395313 -0.18227226 0.28871605
0.2700184 0.29761922 0.12814315 0.49139148 -0.16460471 -0.013913264 0.48054284 0.47022665
-0.08833315 0.2847451 0.23715205 -0.009088497 0.43491971 -0.32887343 0.4325737 0.52531964
-0.31898662 -0.12628575 -0.4965453 -0.15365867 -0.5300546 -0.08315821 0.2550432 0.3283771
0.33410832 0.3624502 0.1525178 -0.2677913 -0.42840043 0.06864027 0.47135445 0.03677143
-0.106438816 -0.3682323 -0.30755827 -0.41911867 0.42704147 -0.14608863 -0.4542803 0.005692692
0.037174314 -0.1537495 0.18480971 0.3298362 -0.5143441 -0.31882697 0.022501301 -0.5245517
00000000: a85a 8e3d 0647 12be 412c 97be ec40 67be
00000010: 1c73 3abe bb05 f63e 2902 943e 8c8e 0b3f
00000020: a67d 793e cc0f 173e 4531 8c3e c756 6d3e
00000030: 79e5 f3be 7793 b6be 44a2 6bbd 5d49 873d
00000040: bf31 7e3e 3775 7a3e 75bb fe3e 0e51 463d
00000050: 382b 27be 3391 b2be c6c7 cabe 2bc8 24be
00000060: f620 073e b9f2 933e 3ccc dd3e e9c3 05be
00000070: 1ebb f4bb db34 67be c882 083c 9145 123e
00000080: 9801 cebc 426d b1bd b061 9d3d 3f35 293e
00000090: 70e9 303a 40d9 9bbe c22b 443e db19 92bd
000000a0: b39c 7ebe ef43 f23d 38f9 e03c 66e7 a93a
000000b0: 6ffa bfbe 4629 c13b 138e 0cbf 8dd5 083e
000000c0: 620e 8c3c bf05 b63e 7995 90bc 99f2 07bc
000000d0: 5b3e 443e 083e 963e 7e49 95be a2d4 b93e
000000e0: e1d8 2fbd b406 c3be 87b7 063e fb66 cdbe
000000f0: e2fe 33be affb 9abe 39fa b7be 4f4f d93e
00000100: 74c3 00bf 65f3 8c3e 5be1 fbbe d8c8 0abe
00000110: a5a0 59bd 3147 c53e b988 56be 4de1 4e3e
00000120: 86d4 74bd 6122 0e3e 6088 ec3d 1e10 963e
00000130: a8d0 98be 860d a6be da87 eb3e 491b bfbe
00000140: c30a 14be 749a 8f3c ee85 ed3e 8e81 e4bd
00000150: d4a7 e6be e06e 79bd b8e6 a73e 8ad1 673e
00000160: bbec d43e 0b80 0abe 126d 883e 9167 12bf
00000170: 068e 863c cba5 9d3e 41e2 993e 43b6 d9be
00000180: a8c0 7cbe a46b 3c3e 2795 82be 5b15 fcbe
00000190: d916 eabe e64c 363e 54e5 9f3e ec10 363d
000001a0: f8be 4a3d 76c9 833e 38f4 d1be d64a f6bc
000001b0: 19da 833d b27a 97be b9ad bc3e da0e 83be
000001c0: b6f9 8c3d 355e 00bf cfaf 75bc b5e0 87be
000001d0: e2b6 813e 82d5 9bbe d98e 9b3e d3a7 eabe
000001e0: be73 9f3e f342 b4be 89f7 a33e 8e45 8ebe
000001f0: f16f 693d 3236 3ebe 29ff 853e 9354 943d
00000200: 5776 f3be 892b c5bc b63b 81be c598 e43e
00000210: 7b81 443e 14c7 1abe cd9a 76be 3375 ed3d
00000220: 71fd b9be 5c64 8c3e e368 a03e 1246 9f3e
00000230: 0101 f13d 71f7 81be 2b93 ca3e aff8 9abe
00000240: b5a9 72be 9fa9 cf3b 7c8a c63e b567 bb3e
00000250: 4efe 533d f6a9 8b3e d912 dbbe b454 c2bc
00000260: 1015 d5be 9374 c63d 5c9d d9be 9242 59be
00000270: 2849 a43e 7358 eb3e 8fe9 a7be bc93 b7be
00000280: cfda c13c 7abd 5c3e 9823 493d d819 93be
00000290: 12eb 94be d108 f53d b74d f43e 5c71 90be
000002a0: 13aa 633e e9a2 193e f4de f83e 69e3 9b3c
000002b0: e719 973d 2f19 5d3e 0fd7 c43e 14be 1d3f
000002c0: 6675 20be 2751 d33e 6c79 d63e ab5f aebe
000002d0: 86ac 233d 37b5 37be 7dac a93e 61e3 b2be
000002e0: a9a0 27bd 0870 c53e d967 10bf a84e 9ebe
000002f0: 989c b4be 73b6 ce3e 6fb0 ab3e 4b90 a4be
00000300: 821d 193d 3606 a4be 8d1f 73be 9978 af3e
00000310: c2a7 793e 25b0 95be 81d2 41ba e175 483e
00000320: 9dd0 a83d 5c16 5bbd d2ae a3be 54fd 9d3e
00000330: 9c04 403e 17d9 503e 94a5 3abe 97d2 933e
00000340: da3f 8a3e 8c61 983e f537 033e aa97 fb3e
00000350: 238e 28be 75f4 63bc b609 f63e 8cc1 f03e
00000360: 03e8 b4bd 1cca 913e fdd7 723e ebe7 14bc
00000370: ccad de3e 1962 a8be 4d7a dd3e 597b 063f
00000380: 3752 a3be 0d51 01be 303b febe b358 1dbe
00000390: a9b1 07bf da4e aabd 0695 823e 0b21 a83e
000003a0: 3f10 ab3e 1393 b93e a02d 1c3e f11b 89be
000003b0: 4d57 dbbe 4593 8c3d 5f55 f13e a49d 163d
000003c0: 98fc d9bd f288 bcbe 4778 9dbe b996 d6be
000003d0: 2ea5 da3e 4298 15be 6d97 e8be c389 ba3b
000003e0: 1844 183d 8270 1dbe c23e 3d3e 4ae0 a83e
000003f0: 0eac 03bf 4a3d a3be a654 b83c 0549 06bf

net.2.weight f4 [256, 256]
-0.1700674 0.16336672 0.04317649 -0.17796786 -0.051701356 0.077087164 0.045838874 0.026005786
-0.13593845 0.00371298 0.17950973 -0.03758129 -0.08182485 -0.20357713 0.09618466 0.21859168
0.05558494 0.06999402 0.18951695 0.038935494 -0.028618976 0.22227307 -0.09541382 0.14596628
0.12809326 0.031917896 0.01349271 0.19121993 -0.14010505 -0.097473145 -0.0069205435 -0.008862094
-0.056298874 -0.2728238 -0.034728575 -0.25882745 0.12552829 -0.10456243 -0.036195263 -0.081152104
-0.037426557 -0.11520954 0.022815708 0.09433201 -0.13391264 0.19711989 0.07370618 -0.06227519
-0.035601262 0.018266061 -0.07498439 -0.14809424 0.0697462 -0.061868764 -0.040531475 -0.10644488
-0.12187953 -0.14212766 0.08914029 0.029897977 -0.095526606 -0.06246186 -0.10455466 0.1838799
-0.19439466 0.15643269 -0.067035824 -0.11638122 -0.08666421 -0.029142782 -0.10604779 0.08216911
-0.27298957 -0.03126381 -0.058883034 -0.045382947 -0.012393731 0.16352808 0.12003964 -0.0749543
-0.079391845 0.19264957 -0.035593875 -0.010522364 -0.2132029 0.17949516 0.17847969 0.09761916
0.0197235 -0.23593211 0.051877774 0.03771608 -0.09750109 0.03689783 -0.07494257 -0.061113536
-0.12861457 -0.040767144 0.050139695 0.061651565 -0.20709233 0.22260693 -0.007246512 -0.18438567
0.10244356 0.15304932 -0.0594623 -0.27171704 0.30382058 -0.18899298 -0.1335341 0.0700113
-0.11185214 0.12527083 -0.24548052 -0.05583299 -0.18118554 0.102131315 -0.07073109 -0.025606658
0.09836372 -0.16181938 -0.006931131 0.03656164 0.2323918 -0.22082087 -0.04212102 -0.15931694
-0.07288171 -0.20026772 0.030594226 -0.09312369 0.23554921 -0.14897902 0.09832297 0.014848442
-0.093557596 0.07263748 0.088719025 -0.116545096 -0.1170704 0.06480752 -0.11635482 -0.08204853
0.11712993 -0.08878685 0.16148788 0.09071327 0.03664596 -0.107535735 0.09849592 -0.004159998
0.07310495 -0.08740569 -0.11772207 -0.1527937 0.08149925 -0.09369328 -0.181352 -0.059563637
-0.15012641 0.08802005 0.17338814 -0.007769238 -0.16753334 -0.076317035 0.0530365 -0.12089843
0.14077485 -0.168512 -0.06350038 0.113134675 0.05709179 -0.15087108 0.08733395 0.023285717
-0.068173856 -0.12704848 0.12403829 -0.12174295 -0.121179804 -0.21709141 0.09225043 -0.18110488
-0.09736848 0.019122805 0.01684792 0.15378343 -0.18986405 0.049617466 0.12753181 0.1673259
-0.16161767 -0.09316562 -0.22955559 0.00029910053 0.10935653 0.025189262 -0.18238504 0.003966615
0.0021732515 0.116562046 -0.23786059 -0.11058099 0.18523347 0.0905453 -0.075299196 0.1609219
-0.00893008 -0.12921713 -0.15270022 -0.06088908 -0.22736648 -0.2863171 0.04854127 0.12068427
0.09053106 -0.081380986 0.14819518 -0.031899504 0.01128008 -0.2812501 -0.14556849 -0.045658495
0.0044382256 0.02746317 -0.08196549 0.05477346 -0.054508157 0.12491298 0.24006264 -0.06927739
0.14991994 0.038366675 -0.036453005 -0.069518775 -0.02629694 0.19575869 0.2136376 0.15396015
-0.11518218 -0.22820228 -0.092180416 -0.14529239 0.16437939 -0.15251312 -0.04533602 0.05404498
-0.14902681 -0.1426478 0.003004361 0.05018729 -0.051662482 0.08545544 0.051932577 -0.092667624
00000000: 2626 2ebe 9b49 273e d5d9 303d 353d 36be
00000010: cdc4 53bd e0df 9d3d 8bc1 3b3d 160a d53c
00000020: 7333 0bbe 7855 733b 66d1 373e d7ee 19bd
00000030: c993 a7bd 8676 50be 77fc c43d 7fd6 5f3e
00000040: 09ad 633d 0659 8f3d bb10 423e d37a 1f3d
00000050: 5872 eabc 8d9b 633e 5268 c3bd 2f78 153e
00000060: e12a 033e 57bc 023d 8710 5d3c 28cf 433e
00000070: b377 0fbe 00a0 c7bd bac5 e2bb 5132 11bc
00000080: a699 66bd 90af 8bbe 8d3f 0ebd 0885 84be
00000090: 7d8a 003e d424 d6bd 7c41 14bd 1333 a6bd
000000a0: 974c 19bd fbf2 ebbd 02e8 ba3c 2431 c13d
000000b0: 6520 09be ccd9 493e 44f3 963d 4514 7fbd
000000c0: a1d2 11bd b5a2 953c 6a91 99bd 04a6 17be
000000d0: 19d7 8e3d 1a6a 7dbd 5504 26bd c6ff d9bd
000000e0: fa9b f9bd ea89 11be 2f8f b63d 9aec f43c
000000f0: 74a3 c3bd 02d8 7fbd c120 d6bd 034b 3c3e
00000100: 650f 47be e42f 203e 144a 89bd 4759 eebd
00000110: 017d b1bd d8bc eebc 952f d9bd 4748 a83d
00000120: 4ac5 8bbe 7b0e 00bd 562f 71bd 78e3 39bd
00000130: 130f 4bbc e873 273e 58d7 f53d a481 99bd
00000140: 3198 a2bd ee45 453e e2ca 11bd fe65 2cbc
00000150: dc51 5abe 94cd 373e 61c3 363e 8eec c73d
00000160: 2d93 a13c 3098 71be ca7d 543d 2d7c 1a3d
00000170: a7ae c7bd 2e22 173d 7d7b 99bd 3052 7abd
00000180: 8ab3 03be 73fb 26bd 485f 4d3d 5a86 7c3d
00000190: 0310 54be 12f3 633e 2674 edbb 99cf 3cbe
000001a0: eecd d13d f6b8 1c3e be8e 73bd 7f1e 8bbe
000001b0: 5f8e 9b3e 6087 41be 2abd 08be 1662 8f3d
000001c0: bc12 e5bd ff46 003e 3f5f 7bbe 22b1 64bd
000001d0: b488 39be 392a d13d 76db 90bd 0ec5 d1bc
000001e0: eb72 c93d fbb3 25be 8a1e e3bb a9c1 153d
000001f0: 1ef8 6d3e de1e 62be 1787 2cbd fb23 23be
00000200: 0243 95bd fb12 4dbe bea0 fa3c a2b7 bebd
00000210: d033 713e f58d 18be 8e5d c93d e146 733c
00000220: 209b bfbd f6c2 943d 52b2 b53d 32af eebd
00000230: 9bc2 efbd ceb9 843d 704b eebd 0f09 a8bd
00000240: d1e1 ef3d e1d5 b5bd 145d 253e e1c7 b93d
00000250: 131a 163d b23b dcbd 3bb8 c93d 9850 88bb
00000260: 0cb8 953d c101 b3bd 4518 f1bd f475 1cbe
00000270: 14e9 a63d 43e2 bfbd 57b4 39be 00f9 73bd
00000280: bdba 19be db43 b43d a98c 313e 1895 febb
00000290: dc8d 2bbe 1b4c 9cbd cd3c 593d 9999 f7bd
000002a0: 4827 103e 698e 2cbe 7d0c 82bd 27b3 e73d
000002b0: 15d9 693d f37d 1abe 24dc b23d b0c1 be3c
000002c0: bc9e 8bbd ff18 02be c907 fe3d 5e54 f9bd
000002d0: 1e2d f8bd 364d 5ebe cbed bc3d 8f73 39be
000002e0: 2069 c7bd 6ea7 9c3c a604 8a3c 6779 1d3e
000002f0: b96b 42be af3b 4b3d b397 023e 7b57 2b3e
00000300: 1a7f 25be 9ecd bebd 9f10 6bbe 98d0 9c39
00000310: 51f6 df3d b659 ce3c 25c3 3abe 61fa 813b
00000320: 1c6d 0e3b 15b8 ee3d ba91 73be 4978 e2bd
00000330: d8ad 3d3e d06f b93d 7736 9abd b6c8 243e
00000340: 784f 12bc 7f51 04be 725d 1cbe d466 79bd
00000350: c2d2 68be 2898 92be 36d3 463d 5129 f73d
00000360: 5968 b93d 13ab a6bd 7ac0 173e 0ea9 02bd
00000370: 16d0 383c 0300 90be e80f 15be 6704 3bbd
00000380: 896e 913b 71fa e03c 86dd a7bd 235a 603d
00000390: f243 5fbd 60d2 ff3d fbd2 753e 4ee1 8dbd
000003a0: 9d84 193e 6026 1d3d bf4f 15bd dc5f 8ebd
000003b0: ae6c d7bc f774 483e d1c3 5a3e bba7 1d3e
000003c0: a3e4 ebbd dcad 69be 16c9 bcbd 87c7 14be
000003d0: 1253 283e 662c 1cbe 43b2 39bd 455e 5d3d
000003e0: 7c9a 18be 4412 12be d0e4 443b 3091 4d3d
000003f0: 0a9c 53bd 4303 af3d 41b7 543d 86c8 bdbd

net.2.bias f4 [256]
-0.019461386 -0.20164274 -0.074352436 0.13925132 -0.12249829 -0.23938341 0.1705498 0.07590626
0.07888226 -0.10228402 -0.146294 -0.12737961 -0.07742211 -0.08638825 -0.23000407 0.01664961
-0.28149495 0.13019125 0.1505225 -0.096808285 0.002712256 0.19043319 0.07338708 0.06485159
0.16761015 0.13048477 0.10069138 -0.27949712 0.27699924 0.06792916 -0.29459724 -0.17377612
0.07753977 0.070639245 0.31382224 -0.067018814 -0.109304726 -0.18976979 0.19414765 -0.13978289
-0.21949472 -0.13025618 -0.1042666 0.31997645 0.10724371 0.06587998 -0.09036815 -0.04002731
-0.22455011 -0.12242228 -0.074628554 0.092344925 0.034364026 0.07268935 -0.054997172 -0.095563024
-0.30167696 0.16597009 0.08320238 -0.23249346 -0.08790778 -0.06638929 0.06163482 0.037169106
0.05575477 -0.27125508 -0.05347633 -0.18055291 0.13136955 -0.278872 0.2193211 -0.121608265
-0.12272874 -0.16893964 -0.11458228 0.07169342 0.106702894 0.052737888 0.014690199 0.013170603
-0.15468776 0.089852035 0.07309284 -0.13567846 -0.1538913 -0.034807142 -0.15992364 0.048386015
-0.19159853 -0.060363714 -0.14402792 0.107776836 0.13598731 0.13206512 0.095221244 -0.14865656
0.1777366 0.027895695 -0.09787511 -0.14026938 0.22578157 0.06868239 -0.07856364 -0.14661765
-0.10897483 -0.016117964 -0.15863861 0.09475571 0.1373532 -0.05460629 -0.088842325 -0.10769872
0.07964506 -0.09589818 -0.122860864 -0.13157581 0.13079058 0.031087995 -0.05367532 -0.13889371
0.09216849 0.11884051 0.023550272 0.26135924 -0.30957344 -0.0058035757 -0.007982146 0.153758
0.16699116 0.27806255 0.06599776 0.020782059 -0.09458955 -0.093150094 0.11068401 -0.11254208
-0.10999438 -0.10728241 -0.24028279 0.1193094 0.11819312 -0.0085726315 -0.031554956 0.13183798
-0.051540602 -0.16333704 0.070203155 -0.13870065 0.09361172 -0.04294396 0.027524054 -0.020116193
-0.21785676 -0.08334199 0.2269304 0.34476474 -0.08000948 0.05260264 -0.050537586 0.0038840408
-0.11264817 -0.15309902 0.14817719 0.07053085 0.03705243 0.08465679 0.23482984 0.10686928
-0.20955123 -0.012299973 -0.04058419 -0.03228963 -0.22627483 0.07261694 -0.11921426 0.21713594
0.11603091 -0.22409181 -0.015416821 0.16754273 -0.046044223 -0.0456079 -0.15576631 -0.1362109
-0.12667891 0.18664514 -0.15919118 0.11089276 -0.06154745 0.1925346 -0.08029939 -0.27832532
0.23064463 -0.10580103 0.06882891 -0.18119156 -0.13663962 0.1928649 0.073056646 0.19703099
0.1970048 0.1775714 0.13487312 0.23558085 0.16881979 0.04034021 0.081017226 -0.017510392
0.041499507 0.06684938 0.067582294 -0.08826789 -0.2038261 -0.1836925 -0.14256185 0.18459083
-0.050022554 0.10887657 0.0325581 -0.014538125 -0.04152682 -0.2637079 0.055691853 -0.34412628
0.049423594 -0.033944197 0.29639494 0.06155799 0.0026681048 -0.24049747 0.13060708 0.18176535
-0.24422492 -0.23119235 0.011116761 -0.14271581 -0.12189802 0.19410686 -0.11173495 0.10601641
0.120659605 0.14111127 0.1186461 0.028949818 -0.0075648366 -0.15263526 -0.112510815 0.18821032
-0.04127626 -0.18339242 0.26107174 0.042304244 -0.1314246 0.08819623 -0.062214613 0.15658455
00000000: 7c6d 9fbc 6f7b 4ebe 1746 98bd e697 0e3e
00000010: 62e0 fabd ed20 75be 9ba4 2e3e be74 9b3d
00000020: 068d a13d 497a d1bd 18ce 15be cd6f 02be
00000030: 7c8f 9ebd 53ec b0bd 3086 6bbe c364 883c
00000040: 1b20 90be db50 053e 9222 1a3e 6c43 c6bd
00000050: 1bc0 313b eb00 433e f74b 963d e9d0 843d
00000060: ffa1 2b3e cd9d 053e 4837 ce3d 3f1a 8fbe
00000070: d8d2 8d3e 721e 8b3d 73d5 96be 5ef2 31be
00000080: 2ccd 9e3d 4fab 903d 4fad a03e 2941 89bd
00000090: 28db dfbd 0353 42be a4ce 463e 3f23 0fbe
000000a0: 39c3 60be e061 05be ba89 d5bd f4d3 a33e
000000b0: 97a2 db3d 15ec 863d f012 b9bd adf3 23bd
000000c0: 77f0 65be 88b8 fabd dbd6 98bd 561f bd3d
000000d0: 4bc1 0c3d 27de 943d b744 61bd 8cb6 c3bd
000000e0: 6775 9abe 10f4 293e 0266 aa3d c412 6ebe
000000f0: ff08 b4bd 1cf7 87bd cb74 7c3d a23e 183d
00000100: 1d5f 643d f2e1 8abe ff09 5bbd dde2 38be
00000110: bd85 063e 50c8 8ebe b695 603e c10d f9bd
00000120: 3559 fbbd 83fe 2cbe 1daa eabd 00d4 923d
00000130: 0c87 da3d af03 583d 29af 703c 83c9 573c
00000140: 7866 1ebe 5804 b83d b3b1 953d 4bef 0abe
00000150: ae95 1dbe ef91 0ebd 06c3 23be 6a30 463d
00000160: 6832 44be f13f 77bd 0e7c 13be 1aba dc3d
00000170: 4240 0b3e 143c 073e 5b03 c33d 6d39 18be
00000180: 9500 363e 8385 e43c bf72 c8bd c7a2 0fbe
00000190: 4933 673e 5aa9 8c3d f9e5 a0bd f022 16be
000001a0: 322e dfbd d209 84bc 2972 22be 480f c23d
000001b0: 51a6 0c3e d8aa 5fbd f7f2 b5bd 2691 dcbd
000001c0: f31c a33d 4466 c4bd 7a9e fbbd cfbb 06be
000001d0: f7ed 053e 40ac fe3c a7da 5bbd 273a 0ebe
000001e0: d5c2 bc3d a762 f33d 80ec c03c e1d0 853e
000001f0: 6980 9ebe ec2b bebb 8cc7 02bc bd72 1d3e
00000200: bbff 2a3e 375e 8e3e d529 873d 233f aa3c
00000210: 2ab8 c1bd 7ac5 bebd 4cae e23d 767c e6bd
00000220: bc44 e1bd e1b6 dbbd b10c 76be 7d58 f43d
00000230: 3c0f f23d 3974 0cbc c53f 01bd 8900 073e
00000240: 3d1c 53bd d341 27be acc6 8f3d 8b07 0ebe
00000250: 80b7 bf3d 01e6 2fbd 207a e13c b7ca a4bc
00000260: d815 5fbe 35af aabd 7160 683e 0185 b03e
00000270: 03dc a3bd de75 573d 8000 4fbd 648b 7e3b
00000280: 15b4 e6bd fdc5 1cbe c3bb 173e 7a72 903d
00000290: 4ac4 173d 8a60 ad3d 3c77 703e 48de da3d
000002a0: 9994 56be d385 49bc 9c3b 26bd 2242 04bd
000002b0: 97b4 67be 31b8 943d 9b26 f4bd e258 5e3e
000002c0: 9da1 ed3d 5378 65be d696 7cbc 5290 2b3e
000002d0: de98 3cbd 59cf 3abd 3481 1fbe df7a 0bbe
000002e0: 1eb8 01be e71f 3f3e 0303 23be be1b e33d
000002f0: 2e19 7cbd ca27 453e 0274 a4bd a880 8ebe
00000300: 1b2e 6c3e 36ae d8bd 2cf6 8c3d 488a 39be
00000310: 42eb 0bbe 607e 453e b99e 953d 7ec2 493e
00000320: a0bb 493e 47d5 353e 2e1c 0a3e 1b3c 713e
00000330: 18df 2c3e c73b 253d 5cec a53d f471 8fbc
00000340: 63fb 293d 54e8 883d 9668 8a3d ccc5 b4bd
00000350: cab7 50be e319 3cbe bcfb 11be 6105 3d3e
00000360: 73e4 4cbd aefa de3d a45b 053d 5131 6ebc
00000370: 0718 2abd b904 87be 241d 643d 5231 b0be
00000380: 6570 4a3d 1209 0bbd 14c1 973e 3b24 7c3d
00000390: 5fdb 2e3b f844 76be ddbd 053e b220 3a3e
000003a0: 1916 7abe b0bd 6cbe 1323 363c 1824 12be
000003b0: aba5 f9bd f3c3 463e 4bd5 e4bd 221f d93d
000003c0: 621c f73d 797f 103e bafc f23d 2b28 ed3c
000003d0: 73e2 f7bb 6b4c 1cbe 126c e6bd 35ba 403e
000003e0: 4c11 29bd 39cb 3bbe 32ab 853e 3747 2d3d
000003f0: 2c94 06be 3aa0 b43d c0d4 7ebd b357 203e

net.4.weight f4 [1, 256]
-0.30348095 -0.004837212 -0.0014563492 -0.1552954 0.12879334 0.0880173 -0.29917493 0.0053884876
0.076750204 -0.36994863 -0.3727779 0.28111508 -0.22286713 -0.16890743 0.29516205 0.009745912
0.20309848 -0.24317294 -0.084554285 0.083319 0.06755643 -0.06063617 0.23249723 -0.0034062394
-0.17677157 -0.19468601 -0.025882503 -0.0360078 -0.13069828 -0.09582484 -0.36491752 0.2844606
-0.15356293 0.0017714541 0.14893834 -0.11302839 -0.15394242 -0.00445491 0.15732117 0.002725128
0.3122304 -0.15359059 0.26700822 -0.2449525 0.010101609 0.21608151 -0.077923015 0.020177443
-0.10899116 0.3932716 0.10553092 0.125835 0.12168248 0.01415138 -0.1235039 0.074190095
-0.003248867 -0.20170578 -0.12408007 0.022045828 -0.20167333 0.08973275 -0.008496658 -0.11927662
0.19001499 0.16873154 -0.15548055 0.2411287 0.008479008 0.09449405 -0.12971315 0.14146665
0.17892279 -0.20685147 0.19188248 -0.15283628 -0.17808288 0.29079846 0.038798343 -0.0053095534
-0.057710875 -0.16339749 0.0068188417 0.26869965 -0.44186068 -0.17982431 0.13522159 0.029926911
0.3357536 -0.0024076325 -0.0017399016 -0.083399825 0.09850661 -0.0029657492 -0.23596004 -0.11780002
0.15984562 -0.0028239773 0.11216383 0.25301895 -0.13121757 0.16834253 0.15783402 -0.04974271
-0.022794105 -0.0796803 -0.0039677573 -0.33396432 0.15853809 -0.017617714 -0.19678509 -0.2535689
0.0011250032 -0.056018464 0.0075144432 0.14479508 -0.18512869 -0.051237576 -0.06532772 -0.22003204
-0.0028369932 -0.19637887 0.012855489 -0.21337907 0.32740414 0.02864886 0.0031110724 0.16943705
0.22646138 0.0038769117 0.0065630837 -0.04349896 -0.031608067 -0.18499497 0.17165174 0.2803769
-0.15948543 -0.14688966 0.055192698 0.20343605 0.118124135 -0.014228064 -0.00510699 0.2020801
-0.0062185926 0.095559634 0.30734432 -0.21710236 0.0085859 -0.12127997 0.001285139 -0.13589174
-0.0073491023 0.023969773 -0.13140456 0.2908793 -0.0360981 0.28548783 -0.078765236 0.0042972127
0.16928256 -0.20631176 0.020602755 0.1965396 -0.018541066 -0.00036489544 0.017268661 -0.1646934
-0.024867633 -0.0073240865 -0.011381464 -0.14566478 0.24478973 0.009870744 0.18173301 0.0030741917
-0.10594883 -0.004003837 -0.031970583 -0.10850508 0.018731004 0.051426943 0.23851846 -0.03624265
0.033707466 -0.22727941 -0.010874237 0.13383162 0.14692137 -0.11287751 -0.16522601 -0.01908441
0.13166553 -0.27390718 0.29235157 0.019681236 0.23826739 0.09864865 0.0010458101 -0.30918574
0.19264686 -0.117146164 0.0018958848 0.0119514465 -0.058394838 0.17179735 0.18108232 -0.012644521
-0.0014301027 0.10027661 0.18764272 0.015782097 -0.007819145 0.07955338 -0.11391903 0.017951483
-0.14444649 0.21969406 -0.17410752 -0.0849983 0.02165046 -0.022042444 -0.08059333 0.08798894
0.2038278 -0.09366984 0.2129846 0.013432983 0.0076114624 0.04224279 -0.41417232 -0.12624021
0.1866107 0.16031872 0.23714758 -0.08468267 0.09609816 -0.37210342 0.08258525 -0.12792991
-0.032194704 0.1773253 -0.36602193 0.00029973328 -0.03132556 -0.1279291 -0.0010053868 -0.19225338
0.26656166 0.15202926 0.03222933 0.056168318 0.16911153 0.19764501 -0.0405038 -0.3017557
00000000: db61 9bbe 7a81 9ebb f8e2 beba c205 1fbe
00000010: 67e2 033e 6a42 b43d 752d 99be e991 b03b
00000020: 362f 9d3d e869 bdbe bfdc bebe 51ee 8f3e
00000030: 4837 64be 12f6 2cbe 7b1f 973e 51ad 1f3c
00000040: 0cf9 4f3e 5402 79be cc2a adbd 27a3 aa3d
00000050: 075b 8a3d a25d 78bd c113 6e3e 373b 5fbb
00000060: 9b03 35be c55b 47be 8b07 d4bc ea7c 13bd
00000070: c5d5 05be d03f c4bd 78d6 babe d2a4 913e
00000080: 9a3f 1dbe 2330 e83a 4b83 183e 6e7b e7bd
00000090: 15a3 1dbe 7efa 91bb cd18 213e 1098 323b
000000a0: aadc 9f3e da46 1dbe 4db5 883e d4d4 7abe
000000b0: 3881 253c 7944 5d3e 1a96 9fbd 2a4b a53c
000000c0: c236 dfbd e55a c93e 9820 d83d e4da 003e
000000d0: aa34 f93d 31db 673c 9def fcbd faf0 973d
000000e0: f2ea 54bb f68b 4ebe b11d febd 7499 b43c
000000f0: 7483 4ebe cec5 b73d 9135 0bbc 4d47 f4bd
00000100: 4a93 423e f6c7 2c3e 4b36 1fbe 71ea 763e
00000110: 8aeb 0a3c 1986 c13d 86d3 04be a2dc 103e
00000120: 8937 373e dfd0 53be d77c 443e 1d81 1cbe
00000130: 5c5b 36be 89e3 943e 03eb 1e3d c3fb adbb
00000140: 3d62 6cbd ac51 27be 9770 df3b 0093 893e
00000150: 903b e2be dd23 38be 8777 0a3e 4829 f53c
00000160: e5e7 ab3e 5fc9 1dbb 690d e4ba 87cd aabd
00000170: d5bd c93d 045d 42bb 829f 71be 2341 f1bd
00000180: 92ae 233e 7a12 39bb 26b6 e53d b38b 813e
00000190: e65d 06be fc61 2c3e 3e9f 213e 03bf 4bbd
000001a0: b4ba babc 6d2f a3bd f603 82bb 5ffd aabe
000001b0: cf57 223e 0653 90bc 0882 49be c8d3 81be
000001c0: d874 933a 9e73 65bd b83b f63b 2945 143e
000001d0: 6092 3dbe 7ede 51bd 8aca 85bd 1450 61be
000001e0: d9ec 39bb 8b17 49be d49f 523c 0b80 5abe
000001f0: 84a1 a73e 04b1 ea3c 22e3 4b3b e880 2d3e
00000200: 7ee5 673e c913 7e3b 230f d73b f72b 32bd
00000210: 7677 01bd 526f 3dbe 79c5 2f3e 908d 8f3e
00000220: 2650 23be 3e6a 16be bd11 623d 8a51 503e
00000230: 11eb f13d d31c 69bc 8a58 a7bb 16ee 4e3e
00000240: 56c5 cbbb c5b4 c33d 3c5c 9d3e 1550 5ebe
00000250: e0ab 0c3c a261 f8bd 1c72 a83a 3427 0bbe
00000260: bdd0 f0bb 425c c43c eb8e 06be 22ee 943e
00000270: 9adb 13bd 762b 923e ab4f a1bd a2cf 8c3b
00000280: 6858 2d3e 6443 53be 1cc7 a83c ad41 493e
00000290: 6fe3 97bc 704f bfb9 0277 8d3c 63a5 28be
000002a0: 35b7 cbbc e4fe efbb 5279 3abc 2629 15be
000002b0: 29aa 7a3e e7b8 213c 3818 3a3e 6178 493b
000002c0: b3fb d8bd 9e32 83bb 96f3 02bd e937 debd
000002d0: c371 993c 0fa5 523d 2f3e 743e 2c73 14bd
000002e0: d710 0a3d efbb 68be db29 32bc 280b 093e
000002f0: 8e72 163e 532c e7bd 0231 29be e956 9cbc
00000300: 54d3 063e 903d 8cbe 1baf 953e 8b3a a13c
00000310: 5efc 733e 4e08 ca3d 9013 893a 984d 9ebe
00000320: 3845 453e 54ea efbd 567f f83a 00d0 433c
00000330: 6d2f 6fbd a5eb 2f3e a56d 393e f72a 4fbc
00000340: 4972 bbba d35d cd3d 6a25 403e 7549 813c
00000350: df1b 00bc e2ec a23d 614e e9bd fd0e 933c
00000360: c8e9 13be 7bf7 603e 3e49 32be 9713 aebd
00000370: 4e5c b13c 5b92 b4bc 1e0e a5bd 8c33 b43d
00000380: 3cb8 503e f9d5 bfbd a318 5a3e 0416 5c3c
00000390: 9369 f93b c706 2d3d 650e d4be 1d45 01be
000003a0: e016 3f3e 972a 243e d1d6 723e 1c6e adbd
000003b0: 1dcf c43d 5784 bebe 7522 a93d 0f00 03be
000003c0: 98de 03bd c394 353e 3a67 bbbe 8525 9d39
000003d0: 3b4f 00bd d9ff 02be 2fc7 83ba 12de 44be
000003e0: c57a 883e 8fad 1b3e e702 043d c010 663d
000003f0: 932b 2d3e 7463 4a3e 50e7 25bd b97f 9abe
